model_orig.pt (torch, 339159 bytes, 6 tensors)

weight f4 [100, 784]
-0.019432593 -0.023014449 0.017421797 -0.025256827 -0.02624465 0.032162767 -0.019946028 0.0031250678
0.035596084 -0.010939114 0.0125921145 -0.015722884 -0.018491764 0.01110718 -0.0070012175 0.011900395
0.008208185 0.001952786 0.031192664 0.005447775 -0.014310902 -0.0039529763 -0.009665979 0.03397781
-0.0051896367 0.01762687 -0.017525788 0.029870067 0.018128172 0.014138881 0.020228103 0.007156633
0.010870922 -0.028422127 0.012619641 0.0034740977 -0.03555871 -0.033195604 0.0022813797 0.022615952
0.039140265 0.029349418 -0.0057584234 -0.018488867 -0.026148232 -0.035487257 -0.026638275 0.024528947
0.0167237 -0.018506944 -0.031791672 0.014076952 0.007674314 -0.020791119 -0.0063167773 -0.011417193
-0.008754509 -0.0035298802 -0.0170098 0.029303256 0.02314661 -0.027870163 -0.0766708 -0.11423139
-0.0929581 -0.12045623 -0.07839634 0.039564513 0.25482157 0.35672203 0.3630349 0.08193388
-0.3138683 -0.22551127 -0.07724196 -0.0859506 0.013028014 -0.01387703 0.031103458 -0.050584193
-0.08905013 -0.07389702 0.002903048 0.0034227967 -0.011989772 -0.02694726 0.03076974 0.00023030862
-0.06113435 -0.009603851 0.05894587 0.068299465 -0.23657449 0.11215939 0.10823202 0.3701707
0.46406752 -0.20962954 -0.16671963 -0.14339943 -0.46983555 -0.41274357 -0.25604138 -0.15033709
-0.1870858 -0.27162206 -0.35101828 -0.33943832 -0.26248437 -0.14465432 5.003065e-06 -0.017617831
-0.005572375 -0.0247275 0.011879057 0.0061119236 -0.02279825 0.079794064 0.078224614 0.00010220944
0.07164288 0.329422 0.17216264 0.18354276 0.013837353 -0.4118669 0.022499278 0.24728443
-0.074259244 -0.15905437 -0.046952404 -0.05233991 -0.003408154 -0.2580812 -0.44484493 0.04952226
0.18104972 0.1954293 0.22514266 -0.02032969 0.033491906 0.010497153 0.02249141 -0.058928747
-0.12434988 -0.09027613 -0.07273375 -0.5103682 -0.64784 -0.39023253 -0.2834083 0.019450635
0.12673934 -0.07881575 0.101425275 0.098670036 -0.2204662 -0.3242567 -0.27176595 0.068650275
0.23231043 0.04663945 -0.14389177 -0.17964555 -0.06419533 0.11092029 0.17466114 0.0013443117
0.0067972206 -3.854558e-05 0.23334168 0.2075402 0.017730605 -0.026314083 0.100677155 0.09411274
-0.24104714 0.014867654 0.029464038 0.01737306 0.008923892 -0.13542718 -0.2767216 -0.20593515
-0.4651967 -0.59063023 -0.40394318 -0.20995346 -0.24503621 -0.13722004 -0.09969438 -0.13677305
0.04924775 0.09514217 0.20601462 0.25749072 0.021896858 0.058637284 0.22807322 -0.05738973
0.044114172 0.047663815 0.08699296 0.024913631 -0.05746285 -0.08241061 0.19737543 -0.021506652
-0.0673735 0.03568604 -0.1511923 -0.35257223 -0.14972661 0.047183722 -0.037243225 -0.14174785
-0.034093678 0.005668146 -0.0213329 0.12978522 0.13838448 0.29461384 0.35302904 0.17880207
8.659437e-05 0.064255774 -0.06296786 -0.27550268 -0.04478266 -0.006373272 0.13248168 0.061561253
0.012425812 -0.064350516 0.18262257 0.068806954 0.13181646 0.03383506 -0.11419407 0.0024668365
0.08543344 0.20005366 0.11453092 0.1437514 0.21246621 0.18506758 0.21554647 0.34890512
0.39354238 0.38174695 0.21027036 0.28528145 0.010835397 0.0011906759 -0.11365947 -0.20453776
00000000: 1a31 9fbc cc88 bcbc 28b8 8e3c 68e7 cebc
00000010: 05ff d6bc 1bbd 033d da65 a3bc f0cd 4c3b
00000020: 33cd 113d f839 33bc 284f 4e3c 47cd 80bc
00000030: 0a7c 97bc e4fa 353c 786a e5bb e0f9 423c
00000040: a07b 063c a0f4 ff3a c287 ff3c 4083 b23b
00000050: 4678 6abc f887 81bb 0e5e 1ebc 512c 0b3d
00000060: d40d aabb 3a66 903c 3e92 8fbc 12b2 f43c
00000070: 8881 943c c4a6 673c 68b5 a53c 3082 ea3b
00000080: f41b 323c 85d5 e8bc 9cc2 4e3c b0ad 633b
00000090: 03a6 11bd 1df8 07bd 3383 153b 1745 b93c
000000a0: 8b51 203d 316e f03c 28b1 bcbb f775 97bc
000000b0: d134 d6bc 165b 11bd 8338 dabc eef0 c83c
000000c0: 2400 893c e09b 97bc fc37 02bd 04a3 663c
000000d0: d078 fb3b 2352 aabc f8fc cebb 2e0f 3bbc
000000e0: 126f 0fbc 9055 67bb 2358 8bbc 620d f03c
000000f0: f69d bd3c f84f e4bc 9505 9dbd 26f2 e9bd
00000100: d160 bebd c2b1 f6bd 438e a0bd 660e 223d
00000110: f977 823e 45a4 b63e b6df b93e f3cc a73d
00000120: 59b3 a0be 6dec 66be 0831 9ebd de06 b0bd
00000130: 7473 553c 7c5c 63bc aecc fe3c 5f31 4fbd
00000140: ea5f b6bd 5257 97bd 1041 3e3b 0051 603b
00000150: c070 44bc 80c0 dcbc d210 fc3c 007f 7139
00000160: 0368 7abd 7859 1dbc 3971 713d 97e0 8b3d
00000170: 9540 72be d2b3 e53d c0a8 dd3d 0487 bd3e
00000180: 429a ed3e 20a9 56be 8db8 2abe 4dd7 12be
00000190: 498e f0be 2053 d3be db17 83be f7f1 19be
000001a0: 6c93 3fbe 0c12 8bbe abb8 b3be dcca adbe
000001b0: 5a64 86be 4320 14be 00e0 a736 4553 90bc
000001c0: 7898 b6bb 5391 cabc 60a0 423c 8846 c83b
000001d0: 65c3 babc 126b a33d 3a34 a03d 4659 d638
000001e0: 81b9 923d 00aa a83e 674b 303e a2f2 3b3e
000001f0: 11b6 623c 38e0 d2be 6850 b83c 2138 7d3e
00000200: 3b15 98bd 26df 22be 2a51 40bd 6062 56bd
00000210: 565b 5fbb 3823 84be b7c2 e3be dad7 4a3d
00000220: 1965 393e 9e1e 483e cc8b 663e 738a a6bc
00000230: cf2e 093d 40fc 2b3c e83f b83c 455f 71bd
00000240: 26ab febd b1e2 b8bd 6ff5 94bd 7ea7 02bf
00000250: d8d8 25bf 8fcc c7be e51a 91be f056 9f3c
00000260: f5c7 013e 276a a1bd 0eb8 cf3d 8413 ca3d
00000270: e4c1 61be f904 a6be e824 8bbe 8498 8c3d
00000280: c9e2 6d3e 0209 3f3d 5d58 13be 01f5 37be
00000290: d778 83bd 2d2a e33d 5fda 323e 9e33 b03a
000002a0: 38bb de3b 00ac 21b8 1ff1 6e3e 6b85 543e
000002b0: c63f 913c a290 d7bc d32f ce3d 2ebe c03d
000002c0: 10d5 76be 7697 733c 915e f13c f351 8e3c
000002d0: 8435 123c 6cad 0abe 74ae 8dbe aae0 52be
000002e0: 432e eebe 8b33 17bf a4d1 cebe 0afe 56be
000002f0: c6ea 7abe 6983 0cbe 912c ccbd 3c0e 0cbe
00000300: 02b8 493d e6d9 c23d 7ff5 523e d3d5 833e
00000310: 0a61 b33c a62d 703d 078c 693e 7e11 6bbd
00000320: 10b1 343d 223b 433d 5d29 b23d ac17 cc3c
00000330: 2a5e 6bbd e5c6 a8bd c91c 4a3e b82e b0bc
00000340: 1efb 89bd 862b 123d 27d2 1abe 5984 b4be
00000350: ef51 19be b843 413d 5a8c 18bd 5926 11be
00000360: d0a5 0bbd dbbb b93b 55c2 aebc 6be6 043e
00000370: a9b4 0d3e a0d7 963e 39c0 b43e e417 373e
00000380: 009a b538 8898 833d 4bf5 80bd b00e 8dbe
00000390: 066e 37bd e1d6 d0bb 47a9 073e a727 7c3d
000003a0: a295 4b3c 34ca 83bd 6901 3b3e a9ea 8c3d
000003b0: e5fa 063e a296 0a3d 95de e9bd a6aa 213b
000003c0: baf7 ae3d deda 4c3e 308f ea3d 9133 133e
000003d0: be90 593e 5b82 3d3e 37b8 5c3e b1a3 b23e
000003e0: 637e c93e 5674 c33e 1d51 573e 6910 923e
000003f0: f386 313c 7410 9c3a 4cc6 e8bd 5972 51be

bias f4 [100]
0.07777857 0.0109628765 -0.17600541 -0.1754085 -0.03980007 -0.33765477 0.00211587 0.00028520156
-0.16691336 -0.053733725 -0.17601338 -0.0029397563 -0.22062671 -0.16949052 -0.30466935 0.09706175
-0.1258275 -0.0140546 0.016658003 -0.06319316 -0.020901868 0.061737932 -0.08635993 -0.107997626
-0.048531055 0.021211114 -0.01321674 -0.30793598 0.054876883 -0.110321164 -0.01033208 -0.26818356
-0.13913801 0.0076797768 -0.098694496 -0.053450715 0.035423502 0.12264548 0.023746165 -0.14787684
-0.24325892 -0.06682233 -0.0013085516 -0.0010266571 -0.11824849 -0.10384326 -0.076028936 0.004147914
0.13301198 -0.07499519 0.10055537 0.020846717 0.0060645104 -0.4558913 -0.01441995 0.14330949
-0.026073707 -0.045667578 0.006625971 -0.04022444 -0.08302172 -0.12101213 0.034539945 -0.06133916
0.021584509 -0.035461873 0.075352326 -0.015058797 -0.10890638 -0.048447784 0.018221237 0.047331627
-0.033277832 -0.00013862547 0.00856993 -0.0821972 -0.045143586 0.022323681 0.07163304 -0.07371835
0.053033028 -0.053432677 -0.007955721 -0.026753433 -0.0868228 -0.2872286 0.30295452 -0.0014151388
-0.11844536 -0.09198808 -0.15126501 -0.057078525 -0.02424862 -0.008126052 -0.14114644 -0.029854901
0.1537555 -0.05425974 -0.018886184 -0.24117303
00000000: 5f4a 9f3d a39d 333c c33a 34be 499e 33be
00000010: 6605 23bd 16e1 acbe 68aa 0a3b 1b87 9539
00000020: 56eb 2abe e517 5cbd da3c 34be eda8 40bb
00000030: f8eb 61be ec8e 2dbe 9ffd 9bbe 50c8 c63d
00000040: edd8 00be 4445 66bc 5d76 883c 6a6b 81bd
00000050: 653a abbc eae0 7c3d 7add b0bd dc2d ddbd
00000060: 80c8 46bd eec2 ad3c 078b 58bc c9a9 9dbe
00000070: 95c6 603d 10f0 e1bd e247 29bc 5b4f 89be
00000080: 327a 0ebe a3a6 fb3b 5720 cabd 23ef 5abd
00000090: 3c18 113d 8e2d fb3d 5187 c23c 076d 17be
000000a0: de18 79be 25da 88bd b583 abba e590 86ba
000000b0: 442c f2bd c6ab d4bd 0fb5 9bbd 39eb 873b
000000c0: 4b34 083e 1497 99bd f9ef cd3d bcc6 aa3c
000000d0: cdb8 c63b 966a e9be a741 6cbc b9bf 123e
000000e0: 8798 d5bc ed0d 3bbd ac1e d93b 62c2 24bd
000000f0: 4b07 aabd 35d5 f7bd c279 0d3d c53e 7bbd
00000100: ffd1 b03c 7840 11bd 5252 9a3d 2cb9 76bc
00000110: 4f0a dfbd 2f71 46bd b444 953c cfde 413d
00000120: 564e 08bd fe5b 11b9 e468 0c3c 0157 a8bd
00000130: 7be8 38bd 27e0 b63c 58b4 923d a5f9 96bd
00000140: 2939 593d 39dc 5abd b658 02bc 042a dbbc
00000150: 27d0 b1bd a10f 93be db1c 9b3e 2e7c b9ba
00000160: 7b93 f2bd 3f64 bcbd 37e5 1abe 2ccb 69bd
00000170: 0ba5 c6bc 2223 05bc b188 10be 4492 f4bc
00000180: 1572 1d3e 763f 5ebd 33b7 9abc 10f6 76be

weight f4 [50, 100]
-0.08183196 -0.008528202 0.051247697 0.056711145 0.0024147094 -0.17318797 -0.1275836 -0.025763126
0.009410602 0.16764058 -0.12971331 0.18506427 -0.02927036 0.046831317 0.03337853 -0.051085744
0.061409745 0.060028728 0.021280318 0.0738067 -0.00642522 0.07878665 0.140355 -0.06757561
0.025680823 -0.096055195 -0.006847391 -0.27775222 -0.048796967 -0.015723664 0.0122432755 -0.31922835
0.022686096 -0.09287016 -0.30993477 0.07344272 0.07508243 -0.009718459 -0.008816367 -0.07436231
-0.19287929 0.12004832 -0.056239624 0.07838607 -0.15213823 -0.14104174 -0.2186158 -0.09606581
-0.053980686 -0.14122267 0.25254458 -0.20436908 0.044712763 0.03639923 -0.16684894 -0.26489314
-0.04768726 -0.025461065 -0.09176143 -0.01333296 -0.08208182 -0.10003796 -0.092866406 0.19430411
-0.10723415 -0.13197412 -0.115189925 -0.47134978 0.18903264 -0.33875543 -0.051091768 0.16020837
-0.06684792 0.039909806 0.002929004 0.14792316 0.06462583 -0.14783467 0.21974668 0.06660001
0.02763069 0.03922855 -0.01090028 0.14008538 -0.06336078 -0.36389664 -0.13779835 -0.008700615
-0.15872727 -0.07760481 -0.09650384 0.07537111 0.012443226 -0.1399329 -0.1845267 0.08310649
-0.13612612 -0.28765675 0.036603946 0.0012215389 -0.117621765 -0.2113514 -0.03850824 -0.0531884
-0.24846359 -0.17512341 -0.11589345 -0.09268672 -0.27259055 0.04017846 -0.2606235 0.23628342
-0.078030765 0.104585126 -0.007287373 0.07487173 -0.014290232 0.054389756 -0.03408629 0.051934402
-0.02404749 0.024543727 -0.0645589 -0.069946304 0.18115155 0.046005588 0.08981473 -0.12888399
-0.09036418 0.061927617 -0.17371784 -0.33117044 0.2047979 0.071298026 0.015157485 -0.08049421
-0.025946809 0.17787354 -0.07643657 -0.0074347383 -0.0991333 -0.20232196 -0.08800813 -0.030453645
-0.21334726 -0.08273426 -0.18261096 -0.06735278 -0.07315165 0.17931354 -0.20784456 -0.027303468
0.05162114 -0.050291054 -0.099232204 0.0978168 0.082221754 0.09924034 0.07320299 0.05248047
0.17998789 0.20591763 0.056072652 0.08032728 0.05285432 -0.10056861 -0.081586204 0.024071185
-0.1217041 -0.014794629 -0.058422644 0.050619796 0.012818826 -0.009269785 -0.043690618 0.11185202
0.061223503 -0.024885835 0.037837148 -0.2184273 -0.1128629 0.036082197 0.07646945 0.13724509
0.04099402 -0.2069873 0.023562925 0.09298723 0.15952589 -0.057908323 -0.14202157 0.026252896
-0.03073284 -0.061714835 -0.24784918 -0.07382126 -0.09057646 0.1602258 0.08702976 -0.033406198
-0.08402342 0.090926446 0.006380669 0.18003589 -0.013426333 0.23028141 0.00902793 -0.025880337
0.14609385 -0.015060168 -0.0673562 0.10585438 -0.15670127 -0.05325837 -0.08579164 -0.085148446
-0.09770343 0.007603691 0.06837018 0.004297468 -0.031343043 -0.025445132 0.16721468 -0.12515362
-0.046379495 -0.0013057088 0.027522158 -0.3497296 -0.2731802 -0.08476047 0.19190608 -0.05427786
-0.21434012 0.09830984 0.13681743 -0.07537894 -0.012032069 0.21188277 -0.06604712 0.007839691
-0.16185644 0.1109054 0.06608264 0.06707972 0.080030344 -0.03915195 -0.05288587 -0.12095037
-0.30415863 -0.31905764 -0.05473027 -0.08501828 0.051351625 0.1023082 -0.09930428 0.04360336
00000000: 8497 a7bd dfb9 0bbc 1be9 513d f249 683d
00000010: 1a40 1e3b 3058 31be 46a5 02be 310d d3bc
00000020: ed2e 1a3c f9a9 2b3e 91d3 04be 7d81 3d3e
00000030: 65c8 efbc 32d2 3f3d edb7 083d 493f 51bd
00000040: c988 7b3d afe0 753d 1054 ae3c f827 973d
00000050: a78a d2bb e55a a13d 39b9 0f3e 1565 8abd
00000060: 9760 d23c 96b8 c4bd 1460 e0bb 8a35 8ebe
00000070: 54df 47bd eace 80bc 0598 483c e671 a3be
00000080: 31d8 b93c b632 bebd c5af 9ebe 2369 963d
00000090: d1c4 993d 2c3a 1fbc 8672 10bc 444b 98bd
000000a0: 2682 45be e5db f53d 855b 66bd e088 a03d
000000b0: 20ca 1bbe 3f6d 10be d2dc 5fbe 27be c4bd
000000c0: da1a 5dbd ad9c 10be 864d 813e 2146 51be
000000d0: bb24 373d 5c17 153d 73da 2abe 13a0 87be
000000e0: b753 43bd b993 d0bc 6bed bbbd 7d72 5abc
000000f0: 831a a8bd b4e0 ccbd be30 bebd a8f7 463e
00000100: 949d dbbd 3924 07be b2e8 ebbd c254 f1be
00000110: c691 413e 5a71 adbe 9a45 51bd aa0d 243e
00000120: 90e7 88bd 7778 233d 88f4 3f3b 2b79 173e
00000130: 8c5a 843d f961 17be 4605 613e 9665 883d
00000140: c259 e23c 1eae 203d 1797 32bc 8b72 0f3e
00000150: 4cc3 81bd a950 babe 031b 0dbe 068d 0ebc
00000160: 6789 22be 45ef 9ebd cea3 c5bd 2b5c 9a3d
00000170: acde 4b3c 924a 0fbe 91f4 3cbe bc33 aa3d
00000180: a564 0bbe bf47 93be 05ee 153d 0b1c a03a
00000190: aee3 f0bd 806c 58be d1ba 1dbd 14dc 59bd
000001a0: 3d6d 7ebe 8d53 33be 8c59 edbd 89d2 bdbd
000001b0: fd90 8bbe 2b92 243d 7270 85be 48f4 713e
000001c0: 98ce 9fbd ba30 d63d eaca eebb 5956 993d
000001d0: 9421 6abc cbc7 5e3d 119e 0bbd 2bb9 543d
000001e0: 3eff c4bc ed0f c93c 7537 84bd 0240 8fbd
000001f0: cb7f 393e 5b70 3c3d c9f0 b73d 2afa 03be
00000200: db10 b9bd d0a7 7d3d 17e3 31be 2c8f a9be
00000210: 8ab6 513e b304 923d 1a57 783c 26da a4bd
00000220: 678e d4bc 7b24 363e c78a 9cbd 1b9f f3bb
00000230: 6606 cbbd 7d2d 4fbe 9b3d b4bd ec79 f9bc
00000240: b477 5abe 9470 a9bd 5efe 3abe 41f0 89bd
00000250: 88d0 95bd f89d 373e 34d5 54be 86ab dfbc
00000260: b070 533d fefd 4dbd 413a cbbd 2d54 c83d
00000270: e163 a83d 853e cb3d 73eb 953d c3f5 563d
00000280: bf4e 383e 12dc 523e 70ac 653d a182 a43d
00000290: c57d 583d eaf6 cdbd ab16 a7bd ef30 c53c
000002a0: 0040 f9bd 2c65 72bc 954c 6fbd b456 4f3d
000002b0: 0e06 523c 4ce0 17bc eff4 32bd ac12 e53d
000002c0: 7fc5 7a3d 61dd cbbc 20fb 1a3d 68ab 5fbe
000002d0: aa24 e7bd edca 133d 049c 9c3d fa89 0c3e
000002e0: 58e9 273d 7bf4 53be 0907 c13c 1770 be3d
000002f0: c15a 233e 4731 6dbd 1a6e 11be 5010 d73c
00000300: 70c3 fbbc b2c8 7cbd 2dcc 7dbe 9a2f 97bd
00000310: 2780 b9bd 3b12 243e a93c b23d f0d4 08bd
00000320: 7914 acbd a537 ba3d ee14 d13b 545b 383e
00000330: 1ffa 5bbc e4ce 6b3e e2e9 133c 0003 d4bc
00000340: a099 153e ecbe 76bc 0cf2 89bd 2eca d83d
00000350: 4c76 20be 7325 5abd 87b3 afbd 4f62 aebd
00000360: bc18 c8bd 6228 f93b aa05 8c3d c6d1 8c3b
00000370: 9061 00bd 4f72 d0bc 533a 2b3e 4528 00be
00000380: 6df8 3dbd 5124 abba 2676 e13c c20f b3be
00000390: 46de 8bbe e696 adbd 0783 443e 7652 5ebd
000003a0: fa7b 5bbe ab56 c93d de19 0c3e 4660 9abd
000003b0: 2822 45bc ccf7 583e b643 87bd 0c72 003c
000003c0: b2bd 25be 5f22 e33d 5656 873d 1861 893d
000003d0: f3e6 a33d cc5d 20bd db9e 58bd d4b4 f7bd
000003e0: aeba 9bbe 865b a3be d92c 60bd 101e aebd
000003f0: 1556 523d f686 d13d 0b60 cbbd 7099 323d

bias f4 [50]
-0.14497378 0.3723192 0.4065432 -0.23409769 0.075734735 -0.08121503 -0.38537288 0.1072767
-0.15202507 -0.2344735 -0.5031276 -0.2449653 -0.25486803 -0.33358648 0.19493651 -0.308372
-0.06339714 -0.30055153 0.094273455 -0.18717021 -0.32113385 -0.10123629 -0.09572891 0.05080407
-0.32176706 -0.017849354 -0.15378809 -0.31782058 0.010110909 -0.21985073 0.061116293 -0.20754623
-0.29535383 -0.27061343 -0.4165062 -0.108604155 -0.3967159 -0.18884505 -0.19320977 -0.58130777
-0.37354285 -0.062532865 -0.099876985 0.0971439 -0.08276517 -0.043365955 -0.2835155 0.28669226
-0.1209233 0.022840682
00000000: 0274 14be 9fa0 be3e 6e26 d03e 4eb7 6fbe
00000010: d01a 9b3d 1154 a6bd 984f c5be e3b3 db3d
00000020: 76ac 1bbe d219 70be f8cc 00bf 2fd8 7abe
00000030: 107e 82be d9cb aabe 709d 473e efe2 9dbe
00000040: 5cd6 81bd e4e1 99be 7112 c13d 8ca9 3fbe
00000050: a86b a4be f954 cfbd 850d c4bd ee17 503d
00000060: a7be a4be cf38 92bc a07a 1dbe 61b9 a2be
00000070: 3aa8 253c 8d20 61be 1455 7a3d 0087 54be
00000080: 9e38 97be d88d 8abe 4d40 d5be db6b debd
00000090: 591e cbbe 9960 41be c8d8 45be 96d0 14bf
000000a0: 0241 bfbe 3b11 80bd 4e8c ccbd 62f3 c63d
000000b0: c980 a9bd 80a0 31bd f228 91be 54c9 923e
000000c0: a3a6 f7bd 621c bb3c

weight f4 [10, 50]
-0.15854834 0.07295089 -0.11180671 -0.02883902 -0.014242183 0.10938661 -0.16702297 0.016931508
-0.03799633 -0.11726303 0.08915887 -0.06986689 -0.085867316 0.084140465 0.03966179 -0.01900618
-0.2102052 -0.003358213 -0.043996297 -0.08807729 -0.08838697 -0.053682104 -0.15126963 -0.07216849
-0.010261316 0.12686339 -0.050312504 0.067820884 0.03472207 0.015984815 -0.00054282334 0.07862571
0.07947827 -0.0091634095 -0.016409475 -0.1174412 0.019027492 0.070029706 -0.06748985 -0.099012144
-0.07769685 0.0723929 -0.0048722075 -0.005895893 0.009113328 0.03894814 -0.01520216 -0.027497312
-0.050026268 0.06641074 -0.091933504 0.008202591 0.01111406 -0.030590627 0.074318506 0.007070426
0.07909535 -0.014910866 0.08878518 -0.076479115 0.024765145 -0.11500601 0.019789997 0.09503616
-0.028762555 0.104516305 0.023300834 -0.05743437 0.06988468 -0.19050866 -0.016763875 -0.21916309
-0.21349238 -0.14197065 -0.0602848 -0.17770578 -0.16949365 -0.1430026 -0.100546256 0.061436545
0.012946428 -0.18057664 -0.05122821 0.1362187 0.12282863 0.03360041 -0.020775141 0.03911495
-0.101322874 0.051026005 0.112328425 -0.09114747 -0.058282908 -0.027850617 0.023071427 -0.09029214
-0.024465712 -0.18126069 -0.15250221 -0.09182709 -0.1576101 0.07027417 -0.14197275 -0.022634596
0.02405844 -0.09521218 -0.045041718 -0.10682121 -0.049046084 0.04948395 0.09139536 0.05415101
-0.047188673 -0.0087661445 0.08083506 -0.06963339 -0.13007519 0.026218416 -0.09398373 -0.11875879
-0.09994514 -0.08142326 0.08322902 0.08334024 -0.032595087 0.012705302 -0.0069781668 0.00035199217
0.16010661 -0.026867483 -0.08375297 0.07495682 0.07033275 -0.09094418 0.0031412283 -0.1203066
-0.15179421 -0.019325865 0.052394807 0.077111505 -0.07687433 0.0018545525 -0.016172444 -0.0068546385
0.14778896 -0.27346918 -0.100573294 -0.02919039 0.098012835 -0.016378032 -0.11551353 0.024197273
-0.07705227 0.06295208 0.10649566 0.06833636 0.013105259 -0.033824977 -0.045696113 -0.0019726758
0.102244414 -0.006303782 -0.0635286 -0.05088177 0.029444562 -0.073182166 0.09660456 0.109734066
-0.009404699 -0.15510947 -0.027062152 -0.07601188 0.069609374 0.042915996 0.07179187 -0.027975634
0.075685374 -0.068343 0.00060014357 -0.10286797 0.04835128 -0.116161905 -0.08046554 0.04743807
-0.051499628 -0.026674597 -0.13544494 -0.051090624 0.008473965 -0.051236693 -0.06301818 0.041866224
-0.05057171 -0.0072271517 -0.029246818 -0.07112664 -0.028581763 -0.025485944 0.02670258 -0.014760178
0.035982765 -0.054594934 0.078837045 -0.12473096 0.03039567 -0.16003746 0.012248173 -0.039934587
0.035459064 -0.05943942 -0.059661947 -0.08717109 -0.025562763 0.07155839 0.08702044 -0.0034996213
-0.021651007 -0.051345646 -0.013895602 -0.031235037 -0.043663643 -0.04375762 -0.047403853 -0.11302563
-0.03883249 0.051971994 0.063445695 0.03523037 -0.011804765 -0.021371802 -0.0069371667 -0.080130175
-0.0075318436 -0.032745183 0.008728757 -0.01950033 -0.021120785 0.089280464 -0.05420266 -0.027362304
-0.04749411 0.0038128123 -0.083956055 0.14293051 -0.061573192 0.008983064 -0.17034493 -0.018433463
-0.02478585 -0.10351451 -0.032580197 -0.03277575 -0.023594936 0.12475432 0.012910394 -0.055369318
00000000: 7f5a 22be 4767 953d ebfa e4bd cf3f ecbc
00000010: 0c58 69bc 1606 e03d 1208 2bbe f2b3 8a3c
00000020: 0aa2 1bbd 9927 f0bd ed98 b63d 5f16 8fbd
00000030: 34db afbd d651 ac3d 6774 223d d9b2 9bbc
00000040: 0840 57be 7715 5cbb 7635 34bd de61 b4bd
00000050: 3a04 b5bd c4e1 5bbd 6de6 1abe 13cd 93bd
00000060: 141f 28bc 7ae8 013e 7c14 4ebd ade5 8a3d
00000070: bb38 0e3d 96f2 823c 424c 0eba 8406 a13d
00000080: 81c5 a23d 2022 16bc 2a6d 86bc 0385 f0bd
00000090: 8bdf 9b3c bc6b 8f3d 1e38 8abd e1c6 cabd
000000a0: 871f 9fbd bb42 943d 0aa7 9fbb 5632 c1bb
000000b0: 1150 153c 1688 1f3d 7b12 79bc 0b42 e1bc
000000c0: 58e8 4cbd 5b02 883d a247 bcbd 2964 063c
000000d0: bf17 363c 3299 fabc 4d34 983d 08af e73b
000000e0: befc a13d b44c 74bc 01d5 b53d 15a1 9cbd
000000f0: 46e0 ca3c 4588 ebbd a21e a23c 51a2 c23d
00000100: 739f ebbc a50c d63d 64e1 be3c 4d40 6bbd
00000110: b31f 8f3d b414 43be 6554 89bc 4a6c 60be
00000120: bf9d 5abe c160 11be 32ed 76bd 81f8 35be
00000130: be8f 2dbe 466f 12be 32eb cdbd e3a4 7b3d
00000140: 411d 543c 15e9 38be acd4 51bd ea7c 0b3e
00000150: 948d fb3d 95a0 093d a130 aabc ff36 203d
00000160: 5e82 cfbd a500 513d 720c e63d 86ab babd
00000170: 0fba 6ebd fa26 e4bc 4a00 bd3c 16eb b8bd
00000180: 516c c8bc 679c 39be 8a29 1cbe d70f bcbd
00000190: 8b64 21be e7eb 8f3d 4e61 11be 306c b9bc
000001a0: 3516 c53c 9afe c2bd aa7d 38bd 14c5 dabd
000001b0: 8ce4 48bd afaf 4a3d 7e2d bb3d 73cd 5d3d
000001c0: e948 41bd e09f 0fbc da8c a53d f39b 8ebd
000001d0: 6e32 05be 01c8 d63c 8b7a c0bd cf37 f3bd
000001e0: 0ab0 ccbd 3dc1 a6bd fa73 aa3d 4aae aa3d
000001f0: 6d82 05bd e629 503c 1ba9 e4bb 978b b839
00000200: fdf2 233e 3219 dcbc ad86 abbd f682 993d
00000210: 9e0a 903d f140 babd 11dd 4d3b 4f63 f6bd
00000220: f16f 1bbe 4751 9ebc f09b 563d a3ec 9d3d
00000230: 4a70 9dbd 7514 f33a 137c 84bc e09c e0bb
00000240: fd55 173e 2704 8cbe 5ff9 cdbd af20 efbc
00000250: f4ba c83d 392b 86bc 5c92 ecbd 5c39 c63c
00000260: 95cd 9dbd 05ed 803d 661a da3d eff3 8b3d
00000270: 71b7 563c 0f8c 0abd d92b 3bbd 0248 01bb
00000280: 8565 d13d f58f cebb 481b 82bd 6769 50bd
00000290: b935 f13c 88e0 95bd 9dd8 c53d 41bc e03d
000002a0: 2b16 1abc 04d5 1ebe 72b1 ddbc 1eac 9bbd
000002b0: 5c8f 8e3d afc8 2f3d 9e07 933d 282d e5bc
000002c0: ef00 9b3d 6af7 8bbd f452 1d3a 71ac d2bd
000002d0: fe0b 463d 4be6 edbd 1ecb a4bd 6c4e 423d
000002e0: 46f1 52bd af84 dabc 14b2 0abe 6744 51bd
000002f0: 63d6 0a3c 91dd 51bd ad0f 81bd eb7b 2b3d
00000300: 4824 4fbd bed1 ecbb 0697 efbc d8aa 91bd
00000310: 4d24 eabc e6c7 d0bc 5ebf da3c acd4 71bc
00000320: aa62 133d f09e 5fbd 5175 a13d f272 ffbd
00000330: 5700 f93c dce0 23be 90ac 483c 7392 23bd
00000340: 863d 113d c076 73bd 1660 74bd c286 b2bd
00000350: 0069 d1bc 358d 923d c637 b23d e759 65bb
00000360: 745d b1bc d04f 52bd 61aa 63bc 9fe0 ffbc
00000370: a6d8 32bd 313b 33bd 8b2a 42bd fb79 e7bd
00000380: d10e 1fbd 96e0 543d d1ef 813d b84d 103d
00000390: c668 41bc eb13 afbc 2c51 e3bb 4a1b a4bd
000003a0: afcd f6bb d01f 06bd 0f03 0f3c 28bf 9fbc
000003b0: 7f05 adbc add8 b63d 9c03 5ebd e926 e0bc
000003c0: 2f89 42bd 60e0 793b 27f1 abbd 605c 123e
000003d0: 2c34 7cbd b42d 133c e76e 2ebe c601 97bc
000003e0: b20b cbbc 6aff d3bd d072 05bd dd3f 06bd
000003f0: 2b4a c1bc 317f ff3d 1e86 533c f0ca 62bd

bias f4 [10]
-0.15656723 -0.4290144 -0.10463508 0.09368463 -0.38951412 -0.20771374 -0.11171847 -0.096647225
0.43009543 0.5110824
00000000: 2953 20be c7a7 dbbe eb4a d6bd badd bf3d
00000010: 656e c7be e9b2 54be a7cc e4bd fbee c5bd
00000020: 7835 dc3e 4cd6 023f
